…
[constructor]  ==== customized_flash_attn=False (using_flash=0/56), fused_mlp=False (fused_mlp=0/56) ==== 
    [Infinity config ] embed_dim=3072, num_heads=24, depth=56, mlp_ratio=4, swiglu=False num_blocks_in_a_chunk=56
    [drop ratios] drop_rate=0.0, drop_path_rate=0.2 (tensor([… ))

[08-19 12:37:54] (ity/models/init_param.py, line  15)=> [init_weights] Infinity with std=0.02
[08-19 12:37:55] (inity_circuit_breaker.py, line 219)=> [PT] GPT model = Infinity(
  drop_path_rate=0.2
  (norm0_cond): Identity()
  (text_norm): FastRMSNorm(C=2048, eps=1e-06, elementwise_affine=True)
  (text_proj_for_sos): TextAttentivePool(
    (ca): CrossAttention(
      Cq=3072, Ckv=2048, cos_attn=False
      (mat_kv): Linear(in_features=2048, out_features=6144, bias=False)
      (proj): Linear(in_features=3072, out_features=3072, bias=True)
      (proj_drop): Identity()
    )
  )
  (text_proj_for_ca): Sequential(
    (0): Linear(in_features=2048, out_features=3072, bias=True)
    (1): GELU(approximate='tanh')
    (2): Linear(in_features=3072, out_features=3072, bias=True)
  )
  (lvl_embed): Embedding(15, 3072)
  (norm0_ve): Identity()
  (word_embed): Linear(in_features=56, out_features=3072, bias=True)
  (shared_ada_lin): Sequential(
    (0): SiLU()
    (1): SharedAdaLin(in_features=3072, out_features=18432, bias=True)
  )
  (head_nm): AdaLNBeforeHead(
    (ln_wo_grad): LayerNorm((3072,), eps=1e-06, elementwise_affine=False)
    (ada_lin): Sequential(
      (0): SiLU()
      (1): Linear(in_features=3072, out_features=6144, bias=True)
    )
  )
  (head): Linear(in_features=3072, out_features=112, bias=True)
  (blocks): ModuleList(
    (0): CrossAttnBlock(
      shared_aln=True, fused_norm=False, ca_gamma=1
      (drop_path): Identity()
      (sa): SelfAttention(
        using_flash=False, tau=1, cos_attn=True
        (mat_qkv): Linear(in_features=3072, out_features=9216, bias=False)
        (proj): Linear(in_features=3072, out_features=3072, bias=True)
        (proj_drop): Identity()
      )
      (ca): CrossAttention(
        Cq=3072, Ckv=3072, cos_attn=False
        (mat_q): Linear(in_features=3072, out_features=3072, bias=True)
        (mat_kv): Linear(in_features=3072, out_features=6144, bias=False)
        (proj): Linear(in_features=3072, out_features=3072, bias=True)
        (proj_drop): Identity()
      )
      (ffn): FFN(
        fused_mlp=False
        (fc1): Linear(in_features=3072, out_features=12288, bias=True)
        (act): GELU(approximate='tanh')
        (fc2): Linear(in_features=12288, out_features=3072, bias=True)
        (drop): Identity()
      )
      (ln_wo_grad): LayerNorm((3072,), eps=1e-06, elementwise_affine=False)
      (ca_norm): LayerNorm((3072,), eps=1e-06, elementwise_affine=True)
    )
    (1-55): 55 x CrossAttnBlock(
      shared_aln=True, fused_norm=False, ca_gamma=1
      (drop_path): DropPath(...)
      (sa): SelfAttention(
        using_flash=False, tau=1, cos_attn=True
        (mat_qkv): Linear(in_features=3072, out_features=9216, bias=False)
        (proj): Linear(in_features=3072, out_features=3072, bias=True)
        (proj_drop): Identity()
      )
      (ca): CrossAttention(
        Cq=3072, Ckv=3072, cos_attn=False
        (mat_q): Linear(in_features=3072, out_features=3072, bias=True)
        (mat_kv): Linear(in_features=3072, out_features=6144, bias=False)
        (proj): Linear(in_features=3072, out_features=3072, bias=True)
        (proj_drop): Identity()
      )
      (ffn): FFN(
        fused_mlp=False
        (fc1): Linear(in_features=3072, out_features=12288, bias=True)
        (act): GELU(approximate='tanh')
        (fc2): Linear(in_features=12288, out_features=3072, bias=True)
        (drop): Identity()
      )
      (ln_wo_grad): LayerNorm((3072,), eps=1e-06, elementwise_affine=False)
      (ca_norm): LayerNorm((3072,), eps=1e-06, elementwise_affine=True)
    )
  )
)


[08-19 12:37:55] (inity_circuit_breaker.py, line 221)=> [PT][#para] VAE=81.62, VAE.quant=0.00
[08-19 12:37:55] (inity_circuit_breaker.py, line 224)=> [PT][#para] GPT=8573.89


[08-19 12:37:55] (inity_circuit_breaker.py, line 252)=> >>>>>>>>>>>>>>>>>>>>>>>>>>>>>>>>>>>>>>>>>>>>>      FSDP INIT with args.zero=2 sharding_strategy=<ShardingStrategy.SHARD_GRAD_OP: 2> auto_wrap_policy=<torch.distributed.fsdp.wrap.ModuleWrapPolicy object at 0x7f20106ff400>({<class 'infinity.models.basic.CrossAttnBlock'>})      <<<<<<<<<<<<<<<<<<<<<<<<<<<<<<<<<<<<<<<<<<<<<
…
